…
ser":{"displayName":"Samyak Shrestha (Caesar)","userId":"13083503381857072620"}},"outputId":"cfc0d96a-b83c-49f2-ba84-29d96ca7d228"},"execution_count":15,"outputs":[{"output_type":"stream","name":"stdout","text":["Swin-Tiny UPerNet Model Summary:\n","====================================================================================================\n","Layer (type:depth-idx)                             Output Shape              Param #\n","====================================================================================================\n","SwinTinyUPerNet                                    [1, 1, 224, 224]          --\n","├─FeatureListNet: 1-1                              [1, 56, 56, 96]           --\n","│    └─PatchEmbed: 2-1                             [1, 56, 56, 96]           --\n","│    │    └─Conv2d: 3-1                            [1, 96, 56, 56]           4,704\n","│    │    └─LayerNorm: 3-2                         [1, 56, 56, 96]           192\n","│    └─SwinTransformerStage: 2-2                   [1, 56, 56, 96]           --\n","│    │    └─Identity: 3-3                          [1, 56, 56, 96]           --\n","│    │    └─Sequential: 3-4                        [1, 56, 56, 96]           224,694\n","│    └─SwinTransformerStage: 2-3                   [1, 28, 28, 192]          --\n","│    │    └─PatchMerging: 3-5                      [1, 28, 28, 192]          74,496\n","│    │    └─Sequential: 3-6                        [1, 28, 28, 192]          891,756\n","│    └─SwinTransformerStage: 2-4                   [1, 14, 14, 384]          --\n","│    │    └─PatchMerging: 3-7                      [1, 14, 14, 384]          296,448\n","│    │    └─Sequential: 3-8                        [1, 14, 14, 384]          10,658,952\n","│    └─SwinTransformerStage: 2-5                   [1, 7, 7, 768]            --\n","│    │    └─PatchMerging: 3-9                      [1, 7, 7, 768]            1,182,720\n","│    │    └─Sequential: 3-10                       [1, 7, 7, 768]            14,183,856\n","├─UPerNetDecoder: 1-2                              [1, 1, 224, 224]          --\n","│    └─PyramidPoolingModule: 2-6                   [1, 768, 7, 7]            --\n","│    │    └─ModuleList: 3-11                       --                        591,360\n","│    │    └─Conv2d: 3-12                           [1, 768, 7, 7]            1,179,648\n","│    └─Conv2d: 2-7                                 [1, 768, 14, 14]          295,680\n","│    └─Sequential: 2-8                             [1, 384, 14, 14]          --\n","│    │    └─Conv2d: 3-13                           [1, 384, 14, 14]          295,296\n","│    │    └─Dropout2d: 3-14                        [1, 384, 14, 14]          --\n","│    └─Conv2d: 2-9                                 [1, 384, 28, 28]          74,112\n","│    └─Sequential: 2-10                            [1, 192, 28, 28]          --\n","│    │    └─Conv2d: 3-15                           [1, 192, 28, 28]          73,920\n","│    │    └─Dropout2d: 3-16                        [1, 192, 28, 28]          --\n","│    └─Conv2d: 2-11                                [1, 192, 56, 56]          18,624\n","│    └─Sequential: 2-12                            [1, 96, 56, 56]           --\n","│    │    └─Conv2d: 3-17                           [1, 96, 56, 56]           18,528\n","│    │    └─Dropout2d: 3-18                        [1, 96, 56, 56]           --\n","│    └─Conv2d: 2-13                                [1, 1, 224, 224]          97\n","====================================================================================================\n","Total params: 30,065,083\n","Trainable params: 30,065,083\n","Non-trainable params: 0\n","Total mult-adds (Units.MEGABYTES): 480.47\n","====================================================================================================\n","Input size (MB): 0.60\n","Forward/backward pass s
…
